train_runs/20250704-130616/quantized_model.tflite (tflite, 15072 bytes, 7 tensors)

sequential/dense/MatMul i1 [2, 64] scale=0.00586716 zero_point=0
-0.6629891 0.5045757 -0.6395204 0.5045757 0.42243552 -0.45763847 0.3520296 0.32856095
0.28749084 -0.5045757 0.36963108 -0.45763847 0.43416983 0.733395 0.38723254 -0.0293358
0.3344281 -0.42830268 -0.45177132 -0.5456459 -0.5104429 -0.44590417 0.40483403 -0.49284142
0.36963108 -0.5104429 -0.45763847 -0.5632473 0.4693728 -0.47523996 -0.5808488 0.3813654
-0.42830268 0.41656837 0.34616244 -0.6747234 0.39896688 -0.39309973 0.293358 -0.5984503
0.3344281 0.42830268 -0.42243552 0.0293358 -0.43416983 -0.72752786 -0.47523996 -0.5045757
-0.36376393 -0.45763847 -0.48697427 -0.5925832 0.36376393 -0.48110712 0.34029528 -0.39309973
-0.48110712 -0.4987086 -0.4693728 0.37549824 0.36376393 -0.45177132 0.40483403 -0.551513
0.6101846 -0.45763847 0.5749817 -0.46350563 -0.45763847 0.40483403 -0.29922515 -0.39896688
-0.293358 0.4987086 -0.44590417 0.48110712 -0.3813654 -0.7451293 -0.4107012 -0.017601479
-0.39896688 0.4987086 0.39896688 0.5397787 0.4987086 0.44003698 -0.42243552 0.43416983
-0.34616244 0.4987086 0.46350563 0.49284142 -0.37549824 0.46350563 0.5984503 -0.34029528
0.44003698 -0.49284142 -0.32856095 0.5925832 -0.38723254 0.4107012 -0.3226938 0.5925832
-0.40483403 -0.43416983 0.3520296 0.0 0.45177132 0.6453876 0.41656837 0.42830268
0.45763847 0.45763847 0.4107012 0.5339115 -0.39896688 0.4987086 -0.39896688 0.4693728
0.5104429 0.5104429 0.42830268 -0.37549824 -0.3813654 0.46350563 -0.4107012 0.5632473
00000000: 8f56 9356 48b2 3c38 31aa 3fb2 4a7d 42fb
00000010: 39b7 b3a3 a9b4 45ac 3fa9 b2a0 50af 9d41
00000020: b747 3b8d 44bd 329a 3949 b805 b684 afaa
00000030: c2b2 ad9b 3eae 3abd aeab b040 3eb3 45a2
00000040: 68b2 62b1 b245 cdbc ce55 b452 bf81 bafd
00000050: bc55 445c 554b b84a c555 4f54 c04f 66c6
00000060: 4bac c865 be46 c965 bbb6 3c00 4d6e 4749
00000070: 4e4e 465b bc55 bc50 5757 49c0 bf4f ba60

sequential/separable_conv2d_1/separable_conv2d i1 [64, 1, 1, 32]
29 2 -8 -46 13 37 13 -17
-9 -55 97 61 -127 7 5 -15
92 -14 88 0 0 29 -10 -14
-13 23 -28 20 -4 53 2 25
-24 10 36 65 -15 25 -30 -9
39 33 -110 -61 127 32 29 20
-51 9 -109 -11 12 -23 38 -22
-4 -17 98 13 -25 -104 -8 -9
38 -15 -15 -69 7 51 3 -30
4 -74 92 64 -127 -1 8 -24
111 -22 81 0 -3 27 -16 -13
-8 19 -27 21 -14 54 0 29
-31 6 43 66 -31 16 -28 -12
38 26 -107 -70 127 29 38 23
-51 16 -122 -16 5 -23 23 -22
-11 -15 98 8 -30 -99 -20 -10
-31 11 37 77 -20 18 -38 -5
35 34 -114 -58 127 31 37 22
-54 20 -122 -19 4 -16 36 -25
-2 -20 82 12 -29 -106 -17 -10
36 -15 -34 -44 -2 5 16 -9
-5 -12 94 58 -127 -2 -18 2
38 -20 97 1 11 19 -10 -7
-9 29 -50 -4 10 61 -3 -11
-17 13 35 69 -19 20 -24 8
23 21 -96 -72 127 18 23 28
-57 8 -112 -6 -6 -21 23 -22
-11 -7 79 20 -26 -104 -22 -23
-25 16 37 57 -24 24 -33 -6
30 28 -96 -66 127 20 34 24
-45 23 -109 -8 4 -28 21 -27
1 -10 87 18 -18 -103 -18 -21
00000000: 1d02 f8d2 0d25 0def f7c9 613d 8107 05f1
00000010: 5cf2 5800 001d f6f2 f317 e414 fc35 0219
00000020: e80a 2441 f119 e2f7 2721 92c3 7f20 1d14
00000030: cd09 93f5 0ce9 26ea fcef 620d e798 f8f7
00000040: 26f1 f1bb 0733 03e2 04b6 5c40 81ff 08e8
00000050: 6fea 5100 fd1b f0f3 f813 e515 f236 001d
00000060: e106 2b42 e110 e4f4 261a 95ba 7f1d 2617
00000070: cd10 86f0 05e9 17ea f5f1 6208 e29d ecf6
00000080: e10b 254d ec12 dafb 2322 8ec6 7f1f 2516
00000090: ca14 86ed 04f0 24e7 feec 520c e396 eff6
000000a0: 24f1 ded4 fe05 10f7 fbf4 5e3a 81fe ee02
000000b0: 26ec 6101 0b13 f6f9 f71d cefc 0a3d fdf5
000000c0: ef0d 2345 ed14 e808 1715 a0b8 7f12 171c
000000d0: c708 90fa faeb 17ea f5f9 4f14 e698 eae9
000000e0: e710 2539 e818 dffa 1e1c a0be 7f14 2218
000000f0: d317 93f8 04e4 15e5 01f6 5712 ee99 eeeb

sequential/separable_conv2d_1/separable_conv2d/depthwise1 i1 [1, 3, 3, 32]
118 -127 -93 108 -96 -22 -87 -109
101 -5 14 107 -112 106 127 -58
127 -97 -99 -112 71 127 119 -109
-57 127 119 126 -127 -115 -83 12
76 -97 -21 116 -86 -25 -69 -21
78 50 89 108 -100 89 62 43
-31 -84 121 -62 93 71 77 -4
-41 91 102 39 -35 -42 -70 -70
64 -72 41 58 -96 111 -77 -23
63 104 54 97 -68 61 38 74
-74 -40 110 -89 75 14 104 -14
-75 61 94 43 28 69 -24 -127
127 -97 -127 99 -111 -29 -115 -114
127 29 87 127 -127 127 113 -37
101 -127 -60 -65 115 100 108 -127
-86 118 107 85 -119 -127 -127 11
66 -99 -34 127 -96 -28 -127 -9
89 78 127 123 -115 120 79 68
-29 -101 127 -70 67 65 127 -20
-103 85 84 71 -57 -20 -79 -86
65 -29 31 77 -127 127 -98 -58
96 127 93 120 -94 65 46 127
-83 -32 104 -107 49 26 89 -40
-118 63 92 25 -2 67 -11 -127
94 -76 -89 115 -79 -58 -111 -127
82 16 25 122 -63 92 123 -72
108 -87 -70 -127 127 111 120 -100
-44 116 127 127 -103 -87 -85 1
53 -93 -34 118 -74 -8 -119 -4
114 68 95 104 -77 83 95 67
-28 -74 105 -85 65 39 96 3
-75 53 99 35 -11 -39 -57 -65
00000000: 7681 a36c a0ea a993 65fb 0e6b 906a 7fc6
00000010: 7f9f 9d90 477f 7793 c77f 777e 818d ad0c
00000020: 4c9f eb74 aae7 bbeb 4e32 596c 9c59 3e2b
00000030: e1ac 79c2 5d47 4dfc d75b 6627 ddd6 baba
00000040: 40b8 293a a06f b3e9 3f68 3661 bc3d 264a
00000050: b6d8 6ea7 4b0e 68f2 b53d 5e2b 1c45 e881
00000060: 7f9f 8163 91e3 8d8e 7f1d 577f 817f 71db
00000070: 6581 c4bf 7364 6c81 aa76 6b55 8981 810b
00000080: 429d de7f a0e4 81f7 594e 7f7b 8d78 4f44
00000090: e39b 7fba 4341 7fec 9955 5447 c7ec b1aa
000000a0: 41e3 1f4d 817f 9ec6 607f 5d78 a241 2e7f
000000b0: ade0 6895 311a 59d8 8a3f 5c19 fe43 f581
000000c0: 5eb4 a773 b1c6 9181 5210 197a c15c 7bb8
000000d0: 6ca9 ba81 7f6f 789c d474 7f7f 99a9 ab01
000000e0: 35a3 de76 b6f8 89fc 7244 5f68 b353 5f43
000000f0: e4b6 69ab 4127 6003 b535 6323 f5d9 c7bf

sequential/separable_conv2d/separable_conv2d i1 [32, 1, 1, 16]
-32 60 -28 6 5 -34 127 53
-11 -19 -38 -10 25 -97 102 94
-47 -68 0 -31 4 25 127 15
5 -2 -38 28 10 80 -23 123
-23 56 35 -6 16 3 79 5
-3 -22 9 16 16 -46 127 26
-11 -11 49 -20 -18 -77 -30 11
39 4 -15 -12 127 -1 76 -105
12 127 -10 19 42 42 -102 0
34 53 35 17 -7 -76 -38 -51
-24 121 -11 5 5 -20 17 23
13 22 -4 7 85 -42 79 -127
29 113 -9 -12 24 30 -127 13
18 20 27 -6 -27 19 -35 -63
-31 -65 -10 -29 27 19 127 -5
-28 -21 8 35 -29 83 4 34
27 -8 -15 -39 47 24 -106 16
34 62 66 28 -19 -6 73 -127
16 127 83 -29 6 38 -115 -10
58 77 27 50 -16 16 -36 81
54 71 -19 61 -22 -25 -12 2
-25 9 27 9 127 15 50 0
8 -127 6 -4 1 4 28 -2
-7 -8 -2 9 0 -21 -10 14
89 127 16 60 -47 -16 -31 11
33 43 -31 89 39 -53 60 18
7 5 -22 -10 37 14 -117 19
43 72 46 11 -40 -26 57 -127
11 3 -30 -32 3 -11 -78 26
49 37 27 1 -13 13 41 -127
-13 -127 24 -4 46 18 -39 -8
51 48 22 36 16 -13 86 -44
00000000: e03c e406 05de 7f35 f5ed daf6 199f 665e
00000010: d1bc 00e1 0419 7f0f 05fe da1c 0a50 e97b
00000020: e938 23fa 1003 4f05 fdea 0910 10d2 7f1a
00000030: f5f5 31ec eeb3 e20b 2704 f1f4 7fff 4c97
00000040: 0c7f f613 2a2a 9a00 2235 2311 f9b4 dacd
00000050: e879 f505 05ec 1117 0d16 fc07 55d6 4f81
00000060: 1d71 f7f4 181e 810d 1214 1bfa e513 ddc1
00000070: e1bf f6e3 1b13 7ffb e4eb 0823 e353 0422
00000080: 1bf8 f1d9 2f18 9610 223e 421c edfa 4981
00000090: 107f 53e3 0626 8df6 3a4d 1b32 f010 dc51
000000a0: 3647 ed3d eae7 f402 e709 1b09 7f0f 3200
000000b0: 0881 06fc 0104 1cfe f9f8 fe09 00eb f60e
000000c0: 597f 103c d1f0 e10b 212b e159 27cb 3c12
000000d0: 0705 eaf6 250e 8b13 2b48 2e0b d8e6 3981
000000e0: 0b03 e2e0 03f5 b21a 3125 1b01 f30d 2981
000000f0: f381 18fc 2e12 d9f8 3330 1624 10f3 56d4

sequential/separable_conv2d/separable_conv2d/depthwise1 i1 [1, 3, 3, 16]
-33 51 -42 -28 67 -12 86 86
88 127 65 24 10 -56 49 -119
-14 26 -73 -4 43 0 101 23
69 20 106 62 92 74 35 -127
54 0 -13 13 127 127 41 -76
11 113 127 71 -102 -16 -78 -52
-127 127 -98 -127 -30 -31 72 93
49 58 89 -42 -32 -127 27 -110
-50 80 -93 -61 -61 70 127 -8
49 42 84 79 34 49 13 -116
-21 35 11 -122 47 119 65 -72
39 14 124 55 -89 -55 -127 -55
-15 13 -127 -77 40 -41 64 127
127 93 -18 37 -17 -28 30 -104
14 -16 -120 -55 46 29 98 -20
108 91 18 127 48 79 28 -122
42 -22 2 12 82 91 38 36
100 113 67 82 -127 8 -32 -73
00000000: df33 d6e4 43f4 5656 587f 4118 0ac8 3189
00000010: f21a b7fc 2b00 6517 4514 6a3e 5c4a 2381
00000020: 3600 f30d 7f7f 29b4 0b71 7f47 9af0 b2cc
00000030: 817f 9e81 e2e1 485d 313a 59d6 e081 1b92
00000040: ce50 a3c3 c346 7ff8 312a 544f 2231 0d8c
00000050: eb23 0b86 2f77 41b8 270e 7c37 a7c9 81c9
00000060: f10d 81b3 28d7 407f 7f5d ee25 efe4 1e98
00000070: 0ef0 88c9 2e1d 62ec 6c5b 127f 304f 1c86
00000080: 2aea 020c 525b 2624 6471 4352 8108 e0b7

sequential/conv2d_1/Conv2D i1 [16, 3, 3, 8]
38 8 20 22 28 3 -2 6
28 14 13 30 23 2 1 0
96 -9 -3 -10 3 4 -4 -10
-4 20 27 32 41 -3 -4 7
39 22 16 37 28 3 -2 6
82 -6 4 -5 15 0 -9 -6
-28 0 8 17 21 -2 -1 4
85 13 15 30 24 8 -2 3
127 -20 -11 -27 -3 2 -6 -11
44 -27 -15 2 -17 -21 -1 9
52 -6 10 -9 10 12 -6 -3
11 40 -13 1 1 -17 -17 -20
75 2 4 10 4 6 14 21
97 11 26 -17 20 23 11 9
35 37 -26 -56 -100 0 5 1
127 -1 7 19 11 0 -2 6
101 -19 -11 -59 -16 3 -7 -14
-63 49 -9 -2 -6 -25 -18 -13
127 8 9 11 2 107 23 34
58 -9 6 -13 4 44 7 10
-11 -15 1 -13 -2 -52 -6 -4
57 9 3 10 5 99 7 23
4 4 20 4 9 33 4 24
93 1 8 -2 7 -3 11 8
69 -12 -26 -18 -28 49 10 7
31 0 2 -3 2 -8 10 30
50 4 7 2 11 -7 14 21
-68 -5 6 5 14 -1 -1 -4
-20 -14 0 8 3 -2 -2 -2
11 -2 4 12 6 7 1 4
-127 18 22 32 37 3 1 5
-33 0 14 30 25 2 0 0
00000000: 2608 1416 1c03 fe06 1c0e 0d1e 1702 0100
00000010: 60f7 fdf6 0304 fcf6 fc14 1b20 29fd fc07
00000020: 2716 1025 1c03 fe06 52fa 04fb 0f00 f7fa
00000030: e400 0811 15fe ff04 550d 0f1e 1808 fe03
00000040: 7fec f5e5 fd02 faf5 2ce5 f102 efeb ff09
00000050: 34fa 0af7 0a0c fafd 0b28 f301 01ef efec
00000060: 4b02 040a 0406 0e15 610b 1aef 1417 0b09
00000070: 2325 e6c8 9c00 0501 7fff 0713 0b00 fe06
00000080: 65ed f5c5 f003 f9f2 c131 f7fe fae7 eef3
00000090: 7f08 090b 026b 1722 3af7 06f3 042c 070a
000000a0: f5f1 01f3 fecc fafc 3909 030a 0563 0717
000000b0: 0404 1404 0921 0418 5d01 08fe 07fd 0b08
000000c0: 45f4 e6ee e431 0a07 1f00 02fd 02f8 0a1e
000000d0: 3204 0702 0bf9 0e15 bcfb 0605 0eff fffc
000000e0: ecf2 0008 03fe fefe 0bfe 040c 0607 0104
000000f0: 8112 1620 2503 0105 df00 0e1e 1902 0000

sequential/conv2d/Conv2D i1 [8, 3, 3, 1]
-64 20 51 22 46 -32 70 -59
-127 61 -26 52 127 24 81 92
-13 64 51 20 -40 102 63 25
127 68 44 23 22 98 59 113
127 53 79 98 91 50 0 127
76 25 104 41 11 6 -26 -127
98 77 -69 -10 -33 -127 -122 -59
86 127 -2 11 -18 79 -102 25
85 -26 -127 14 90 121 -11 -17
00000000: c014 3316 2ee0 46c5 813d e634 7f18 515c
00000010: f340 3314 d866 3f19 7f44 2c17 1662 3b71
00000020: 7f35 4f62 5b32 007f 4c19 6829 0b06 e681
00000030: 624d bbf6 df81 86c5 567f fe0b ee4f 9a19
00000040: 55e6 810e 5a79 f5ef
