train_runs/20250708-072054/quantized_model.tflite (tflite, 37112 bytes, 7 tensors)

sequential/dense/MatMul i1 [6, 64] scale=0.0018626727 zero_point=0
0	0xd6	-0.07823226
1	0x3d	0.11362304
2	0x2f	0.08754562
3	0x81	-0.23655944
4	0x48	0.13411243
5	0x1e	0.05588018
6	0x13	0.035390783
7	0xc4	-0.11176036
8	0x21	0.0614682
9	0x8e	-0.21234469
10	0xe4	-0.052154835
11	0x14	0.037253454
12	0x58	0.1639152
13	0x02	0.0037253455
14	0x33	0.09499631
15	0x68	0.19371797
16	0xf3	-0.024214746
17	0xe7	-0.046566818
18	0xe5	-0.050292164
19	0x1a	0.048429493
20	0xed	-0.035390783
21	0x48	0.13411243
22	0x1f	0.057742856
23	0xdc	-0.06705622
24	0x6f	0.20675668
25	0xc3	-0.11362304
26	0xb9	-0.13224976
27	0xda	-0.070781566
28	0xd5	-0.080094926
29	0xbe	-0.1229364
30	0x03	0.0055880183
31	0x5d	0.17322856
32	0xc8	-0.10430967
33	0xdb	-0.06891889
34	0xeb	-0.03911613
35	0x17	0.04284147
36	0x31	0.09127096
37	0x96	-0.1974433
38	0xfd	-0.0055880183
39	0x1d	0.05401751
40	0xa5	-0.16950321
41	0x30	0.08940829
42	0xf1	-0.02794009
43	0xb2	-0.14528847
44	0x17	0.04284147
45	0x07	0.013038709
46	0xfd	-0.0055880183
47	0x1f	0.057742856
48	0x2c	0.0819576
49	0x05	0.009313364
50	0x26	0.070781566
51	0xaa	-0.16018985
52	0x96	-0.1974433
53	0x14	0.037253454
54	0xed	-0.035390783
55	0x9d	-0.1844046
56	0x19	0.046566818
57	0x17	0.04284147
58	0xc7	-0.106172346
59	0x03	0.0055880183
60	0x23	0.06519355
61	0x19	0.046566818
62	0xc1	-0.11734838
63	0x2a	0.07823226
64	0xe3	-0.05401751
65	0xb7	-0.13597511
66	0xb8	-0.13411243
67	0xb1	-0.14715114
68	0xc3	-0.11362304
69	0x2b	0.080094926
70	0xf7	-0.016764054
71	0xbf	-0.12107373
72	0x16	0.0409788
73	0xed	-0.035390783
74	0xe5	-0.050292164
75	0x9e	-0.18254192
76	0x95	-0.19930598
77	0xed	-0.035390783
78	0xa6	-0.16764055
79	0xd5	-0.080094926
80	0x68	0.19371797
81	0xdb	-0.06891889
82	0x57	0.16205253
83	0x3b	0.10989769
84	0x03	0.0055880183
85	0x85	-0.22910875
86	0x9d	-0.1844046
87	0x6e	0.204894
88	0xcd	-0.09499631
89	0x5c	0.17136589
90	0x9a	-0.18999262
91	0x2f	0.08754562
92	0x02	0.0037253455
93	0x37	0.102447
94	0x12	0.03352811
95	0x1d	0.05401751
96	0x3f	0.11734838
97	0xf3	-0.024214746
98	0x20	0.059605528
99	0x5e	0.17509124
100	0x4d	0.1434258
101	0xfb	-0.009313364
102	0xaf	-0.15087649
103	0xee	-0.03352811
104	0x0f	0.02794009
105	0x1c	0.052154835
106	0xf6	-0.018626727
107	0xcb	-0.09872165
108	0x13	0.035390783
109	0x2a	0.07823226
110	0x3a	0.10803502
111	0xe3	-0.05401751
112	0x4c	0.14156313
113	0x2d	0.083820276
114	0x12	0.03352811
115	0x52	0.15273917
116	0xf9	-0.013038709
117	0x00	0.0
118	0x3b	0.10989769
119	0xd3	-0.083820276
120	0x0a	0.018626727
121	0x27	0.07264423
122	0x0f	0.02794009
123	0xa7	-0.16577788
124	0xef	-0.031665437
125	0xd1	-0.08754562
126	0x41	0.12107373
127	0x98	-0.19371797
128	0x2e	0.08568294
129	0xcd	-0.09499631
130	0xee	-0.03352811
131	0x48	0.13411243
132	0x13	0.035390783
133	0x4d	0.1434258
134	0x32	0.093133636
135	0xfd	-0.0055880183
136	0x05	0.009313364
137	0x3e	0.11548571
138	0xa0	-0.17881659
139	0x0f	0.02794009
140	0xff	-0.0018626727
141	0x5d	0.17322856
142	0xfd	-0.0055880183
143	0xf8	-0.014901382
144	0xda	-0.070781566
145	0x4a	0.13783778
146	0x00	0.0
147	0xca	-0.10058433
148	0xf8	-0.014901382
149	0xe0	-0.059605528
150	0x60	0.17881659
151	0x29	0.07636958
152	0xab	-0.15832718
153	0xe1	-0.057742856
154	0x24	0.06705622
155	0xdc	-0.06705622
156	0xfb	-0.009313364
157	0xe8	-0.044704147
158	0x35	0.09872165
159	0xc5	-0.10989769
160	0x12	0.03352811
161	0x99	-0.1918553
162	0xab	-0.15832718
163	0x12	0.03352811
164	0x00	0.0
165	0x3f	0.11734838
166	0x4a	0.13783778
167	0x03	0.0055880183
168	0xc0	-0.119211055
169	0xc3	-0.11362304
170	0xeb	-0.03911613
171	0x4a	0.13783778
172	0xc2	-0.11548571
173	0xdc	-0.06705622
174	0xab	-0.15832718
175	0xfc	-0.007450691
176	0xc9	-0.102447
177	0x43	0.12479907
178	0x22	0.063330874
179	0x3b	0.10989769
180	0x4b	0.13970046
181	0xbd	-0.12479907
182	0x0b	0.0204894
183	0xf8	-0.014901382
184	0xba	-0.1303871
185	0xc1	-0.11734838
186	0xc8	-0.10430967
187	0x1b	0.050292164
188	0xa4	-0.17136589
189	0xd5	-0.080094926
190	0xc8	-0.10430967
191	0x05	0.009313364
192	0x08	0.014901382
193	0x0a	0.018626727
194	0x45	0.12852442
195	0x34	0.096858986
196	0xfb	-0.009313364
197	0x99	-0.1918553
198	0x15	0.03911613
199	0x26	0.070781566
200	0x10	0.029802764
201	0x14	0.037253454
202	0x45	0.12852442
203	0x1c	0.052154835
204	0xda	-0.070781566
205	0xbd	-0.12479907
206	0xc6	-0.10803502
207	0xfa	-0.011176037
208	0x2f	0.08754562
209	0x08	0.014901382
210	0xae	-0.15273917
211	0x1d	0.05401751
212	0xe2	-0.05588018
213	0x24	0.06705622
214	0xe7	-0.046566818
215	0xe2	-0.05588018
216	0xd5	-0.080094926
217	0x22	0.063330874
218	0x0f	0.02794009
219	0x5c	0.17136589
220	0xe6	-0.048429493
221	0x0a	0.018626727
222	0x13	0.035390783
223	0xba	-0.1303871
224	0xe6	-0.048429493
225	0x17	0.04284147
226	0x32	0.093133636
227	0xa6	-0.16764055
228	0x94	-0.20116866
229	0xd7	-0.07636958
230	0x1d	0.05401751
231	0x34	0.096858986
232	0x3c	0.11176036
233	0xa3	-0.17322856
234	0xb2	-0.14528847
235	0x0b	0.0204894
236	0xdb	-0.06891889
237	0x57	0.16205253
238	0xfa	-0.011176037
239	0x1b	0.050292164
240	0xc5	-0.10989769
241	0xf1	-0.02794009
242	0xaf	-0.15087649
243	0xbb	-0.12852442
244	0xed	-0.035390783
245	0x99	-0.1918553
246	0x89	-0.22165805
247	0xfc	-0.007450691
248	0x49	0.13597511
249	0x3a	0.10803502
250	0x59	0.16577788
251	0x0b	0.0204894
252	0xf4	-0.022352073
253	0x25	0.06891889
254	0x19	0.046566818
255	0x54	0.15646452

sequential/conv2d_5/Conv2D i1 [64, 3, 3, 32]
0	0xfe	-2
1	0x03	3
2	0x02	2
3	0x0e	14
4	0x03	3
5	0x07	7
6	0x15	21
7	0x14	20
8	0x00	0
9	0xcd	-51
10	0xec	-20
11	0xf2	-14
12	0x00	0
13	0x81	-127
14	0x12	18
15	0xd6	-42
16	0x27	39
17	0xe2	-30
18	0xec	-20
19	0xf4	-12
20	0x1d	29
21	0xfc	-4
22	0xf1	-15
23	0x14	20
24	0xf2	-14
25	0xe2	-30
26	0xed	-19
27	0x20	32
28	0x0a	10
29	0xff	-1
30	0x85	-123
31	0x0c	12
32	0x0a	10
33	0x38	56
34	0x20	32
35	0xd8	-40
36	0xf6	-10
37	0xaa	-86
38	0x02	2
39	0x12	18
40	0x00	0
41	0xf4	-12
42	0x17	23
43	0xfe	-2
44	0x00	0
45	0xed	-19
46	0x0b	11
47	0x10	16
48	0x18	24
49	0x23	35
50	0x01	1
51	0xb6	-74
52	0xf8	-8
53	0xec	-20
54	0x13	19
55	0xf5	-11
56	0x17	23
57	0xd9	-39
58	0x0f	15
59	0xe6	-26
60	0xf6	-10
61	0x06	6
62	0x00	0
63	0xfa	-6
64	0x14	20
65	0xb0	-80
66	0xf2	-14
67	0x0d	13
68	0xfc	-4
69	0xe3	-29
70	0x09	9
71	0xe2	-30
72	0x00	0
73	0xde	-34
74	0x0c	12
75	0xf8	-8
76	0x00	0
77	0x08	8
78	0x01	1
79	0xff	-1
80	0xee	-18
81	0x0f	15
82	0xf9	-7
83	0xd5	-43
84	0x12	18
85	0xff	-1
86	0xee	-18
87	0xff	-1
88	0x0b	11
89	0xd8	-40
90	0x0b	11
91	0xfe	-2
92	0xf3	-13
93	0xc3	-61
94	0x0b	11
95	0xfd	-3
96	0xf6	-10
97	0xff	-1
98	0xfe	-2
99	0xf0	-16
100	0xe0	-32
101	0x20	32
102	0x04	4
103	0x16	22
104	0x00	0
105	0x0f	15
106	0x1a	26
107	0xf8	-8
108	0x00	0
109	0xef	-17
110	0x04	4
111	0xc5	-59
112	0x02	2
113	0xfb	-5
114	0xf6	-10
115	0xed	-19
116	0xe7	-25
117	0x1b	27
118	0xf1	-15
119	0x0f	15
120	0x03	3
121	0xff	-1
122	0x07	7
123	0x08	8
124	0x07	7
125	0xf3	-13
126	0xc5	-59
127	0x0e	14
128	0xeb	-21
129	0xe3	-29
130	0xeb	-21
131	0x11	17
132	0xfe	-2
133	0xf5	-11
134	0xf8	-8
135	0x07	7
136	0x00	0
137	0xfe	-2
138	0x18	24
139	0xed	-19
140	0x00	0
141	0x05	5
142	0x04	4
143	0xfc	-4
144	0x00	0
145	0xfd	-3
146	0x0b	11
147	0xc8	-56
148	0x06	6
149	0x05	5
150	0xf7	-9
151	0xff	-1
152	0xf3	-13
153	0xff	-1
154	0x08	8
155	0xf5	-11
156	0x00	0
157	0x10	16
158	0xed	-19
159	0x10	16
160	0x1d	29
161	0xda	-38
162	0xf1	-15
163	0xec	-20
164	0xf1	-15
165	0xfb	-5
166	0x04	4
167	0xfe	-2
168	0x00	0
169	0xd2	-46
170	0xdf	-33
171	0x0b	11
172	0x01	1
173	0x06	6
174	0xff	-1
175	0xf1	-15
176	0x0d	13
177	0x09	9
178	0x06	6
179	0xdb	-37
180	0xf4	-12
181	0xfc	-4
182	0x22	34
183	0xe3	-29
184	0x05	5
185	0xec	-20
186	0xfe	-2
187	0x11	17
188	0x06	6
189	0xe4	-28
190	0x21	33
191	0xf0	-16
192	0x04	4
193	0xfd	-3
194	0x19	25
195	0xf8	-8
196	0xff	-1
197	0xfa	-6
198	0xec	-20
199	0x04	4
200	0x00	0
201	0x13	19
202	0xdc	-36
203	0x01	1
204	0x00	0
205	0x10	16
206	0x01	1
207	0xd0	-48
208	0x02	2
209	0x09	9
210	0xf4	-12
211	0xc7	-57
212	0x09	9
213	0xad	-83
214	0xfa	-6
215	0x13	19
216	0xfc	-4
217	0xed	-19
218	0xf4	-12
219	0x0c	12
220	0x00	0
221	0xe3	-29
222	0xe7	-25
223	0x19	25
224	0xce	-50
225	0x01	1
226	0xed	-19
227	0x1c	28
228	0x02	2
229	0xe6	-26
230	0xf4	-12
231	0xff	-1
232	0x00	0
233	0xed	-19
234	0x01	1
235	0x03	3
236	0x00	0
237	0xfb	-5
238	0xf4	-12
239	0xe6	-26
240	0xf2	-14
241	0x19	25
242	0xfe	-2
243	0xd9	-39
244	0xf4	-12
245	0xeb	-21
246	0xfe	-2
247	0xf0	-16
248	0xd3	-45
249	0x15	21
250	0xd7	-41
251	0x0a	10
252	0x06	6
253	0xf5	-11
254	0x12	18
255	0xf3	-13

sequential/conv2d_4/Conv2D i1 [32, 3, 3, 16]
0	0xf2	-14
1	0x31	49
2	0x00	0
3	0xef	-17
4	0xdd	-35
5	0xd1	-47
6	0xf6	-10
7	0x1d	29
8	0xde	-34
9	0xd8	-40
10	0xdc	-36
11	0xf4	-12
12	0xfd	-3
13	0xe7	-25
14	0xb2	-78
15	0x03	3
16	0x16	22
17	0x0e	14
18	0xeb	-21
19	0x10	16
20	0x11	17
21	0x1a	26
22	0x04	4
23	0x13	19
24	0x10	16
25	0xec	-20
26	0xe0	-32
27	0xd9	-39
28	0xdd	-35
29	0xe2	-30
30	0xd1	-47
31	0x10	16
32	0x27	39
33	0x25	37
34	0x1b	27
35	0x10	16
36	0xfb	-5
37	0xdf	-33
38	0x08	8
39	0x0e	14
40	0x16	22
41	0x04	4
42	0x19	25
43	0xdd	-35
44	0x0a	10
45	0xee	-18
46	0xda	-38
47	0x00	0
48	0x03	3
49	0x27	39
50	0xfe	-2
51	0xfd	-3
52	0x9a	-102
53	0xc7	-57
54	0x0c	12
55	0x08	8
56	0xc1	-63
57	0xd1	-47
58	0xdc	-36
59	0xc7	-57
60	0x11	17
61	0xa0	-96
62	0xad	-83
63	0xe2	-30
64	0x19	25
65	0x0e	14
66	0x10	16
67	0xe7	-25
68	0xcd	-51
69	0xe7	-25
70	0x0d	13
71	0x03	3
72	0x04	4
73	0x09	9
74	0xd9	-39
75	0xf1	-15
76	0xfb	-5
77	0xf6	-10
78	0xfe	-2
79	0x15	21
80	0x2e	46
81	0x1a	26
82	0x1b	27
83	0x18	24
84	0xfd	-3
85	0xf4	-12
86	0x24	36
87	0xea	-22
88	0xec	-20
89	0xf3	-13
90	0x00	0
91	0x11	17
92	0x1c	28
93	0xf0	-16
94	0x02	2
95	0x13	19
96	0x02	2
97	0xbf	-65
98	0x1f	31
99	0x0e	14
100	0x07	7
101	0xfe	-2
102	0x22	34
103	0x2f	47
104	0xba	-70
105	0x18	24
106	0xf6	-10
107	0x0a	10
108	0xcc	-52
109	0xe3	-29
110	0xe5	-27
111	0x15	21
112	0x27	39
113	0x02	2
114	0x23	35
115	0xea	-22
116	0x19	25
117	0x97	-105
118	0xe8	-24
119	0xa2	-94
120	0xea	-22
121	0x18	24
122	0x08	8
123	0x1a	26
124	0x21	33
125	0x0b	11
126	0x28	40
127	0xe2	-30
128	0x22	34
129	0xe0	-32
130	0xd5	-43
131	0x21	33
132	0x1c	28
133	0xe6	-26
134	0x06	6
135	0xbc	-68
136	0x81	-127
137	0xff	-1
138	0x36	54
139	0x43	67
140	0x29	41
141	0xde	-34
142	0x2a	42
143	0xfd	-3
144	0xda	-38
145	0x40	64
146	0x19	25
147	0xcb	-53
148	0xd9	-39
149	0x21	33
150	0x0a	10
151	0x53	83
152	0x3e	62
153	0x07	7
154	0xca	-54
155	0xed	-19
156	0x1c	28
157	0x1a	26
158	0xd4	-44
159	0x3a	58
160	0x38	56
161	0xf5	-11
162	0x1a	26
163	0x7f	127
164	0xe6	-26
165	0x25	37
166	0xfc	-4
167	0xe9	-23
168	0xef	-17
169	0x68	104
170	0x0c	12
171	0x11	17
172	0x0d	13
173	0x21	33
174	0x0f	15
175	0x09	9
176	0xfe	-2
177	0xdc	-36
178	0x2b	43
179	0x2e	46
180	0x09	9
181	0xe5	-27
182	0xf8	-8
183	0x37	55
184	0xb3	-77
185	0xb5	-75
186	0x2d	45
187	0x57	87
188	0xef	-17
189	0xb3	-77
190	0xe1	-31
191	0x1d	29
192	0xdc	-36
193	0xe3	-29
194	0x09	9
195	0xd1	-47
196	0xf1	-15
197	0xe7	-25
198	0xea	-22
199	0xec	-20
200	0x1f	31
201	0xf1	-15
202	0xd8	-40
203	0xab	-85
204	0x14	20
205	0x20	32
206	0xee	-18
207	0x1d	29
208	0xee	-18
209	0x90	-112
210	0x0d	13
211	0x08	8
212	0xfb	-5
213	0x10	16
214	0xfa	-6
215	0xf1	-15
216	0xcf	-49
217	0x1a	26
218	0x22	34
219	0x0e	14
220	0x19	25
221	0xf4	-12
222	0x0b	11
223	0xfd	-3
224	0x16	22
225	0x02	2
226	0x27	39
227	0x04	4
228	0x31	49
229	0xaf	-81
230	0x0c	12
231	0xb7	-73
232	0x04	4
233	0xe2	-30
234	0x4e	78
235	0x2c	44
236	0x14	20
237	0xd5	-43
238	0xf3	-13
239	0x15	21
240	0xe2	-30
241	0xc7	-57
242	0xcc	-52
243	0x19	25
244	0xdd	-35
245	0xf3	-13
246	0xde	-34
247	0xcf	-49
248	0xd3	-45
249	0xdb	-37
250	0x0f	15
251	0x29	41
252	0x0d	13
253	0x00	0
254	0x08	8
255	0xed	-19

sequential/conv2d_3/Conv2D i1 [16, 3, 3, 16]
0	0xbf	-65
1	0x21	33
2	0xcf	-49
3	0xdc	-36
4	0xcd	-51
5	0x02	2
6	0x35	53
7	0xbb	-69
8	0x3a	58
9	0xc9	-55
10	0x2a	42
11	0x0f	15
12	0x17	23
13	0x32	50
14	0xed	-19
15	0x09	9
16	0xc0	-64
17	0x1a	26
18	0xe3	-29
19	0xbd	-67
20	0xb6	-74
21	0xbf	-65
22	0xe0	-32
23	0x0e	14
24	0x0c	12
25	0xf1	-15
26	0xb9	-71
27	0xfb	-5
28	0xfd	-3
29	0xf5	-11
30	0x0d	13
31	0xff	-1
32	0xfb	-5
33	0x0f	15
34	0x1b	27
35	0x0f	15
36	0x0c	12
37	0xfa	-6
38	0x81	-127
39	0x32	50
40	0xf3	-13
41	0x25	37
42	0xc5	-59
43	0xee	-18
44	0xa4	-92
45	0xf6	-10
46	0x23	35
47	0x01	1
48	0xa7	-89
49	0x2f	47
50	0xd3	-45
51	0xbb	-69
52	0xa6	-90
53	0xe8	-24
54	0x44	68
55	0xe8	-24
56	0x47	71
57	0xd3	-45
58	0x06	6
59	0x02	2
60	0x1b	27
61	0x12	18
62	0xed	-19
63	0xf8	-8
64	0xe5	-27
65	0x13	19
66	0x11	17
67	0xef	-17
68	0xe5	-27
69	0xeb	-21
70	0xbf	-65
71	0x2f	47
72	0xe4	-28
73	0x27	39
74	0xbf	-65
75	0xc5	-59
76	0xd1	-47
77	0xe3	-29
78	0x1e	30
79	0xba	-70
80	0x19	25
81	0xfa	-6
82	0x25	37
83	0x34	52
84	0x32	50
85	0x19	25
86	0xcc	-52
87	0x1d	29
88	0xd3	-45
89	0x30	48
90	0x14	20
91	0xfa	-6
92	0xe9	-23
93	0x07	7
94	0x1d	29
95	0x18	24
96	0xaa	-86
97	0x2d	45
98	0xe4	-28
99	0xc2	-62
100	0xac	-84
101	0xd7	-41
102	0x2c	44
103	0x17	23
104	0x35	53
105	0xe4	-28
106	0xe3	-29
107	0xf2	-14
108	0xfd	-3
109	0xfc	-4
110	0x11	17
111	0xc9	-55
112	0x04	4
113	0x11	17
114	0x20	32
115	0x1d	29
116	0x17	23
117	0xf8	-8
118	0xc4	-60
119	0x2e	46
120	0xd7	-41
121	0x26	38
122	0xdc	-36
123	0xf2	-14
124	0xc8	-56
125	0x09	9
126	0x2a	42
127	0xd8	-40
128	0x1f	31
129	0x06	6
130	0x15	21
131	0x32	50
132	0x31	49
133	0x12	18
134	0x0b	11
135	0xf8	-8
136	0x0b	11
137	0x09	9
138	0x2c	44
139	0x26	38
140	0x2c	44
141	0x22	34
142	0x14	20
143	0x37	55
144	0xf7	-9
145	0x0b	11
146	0xf1	-15
147	0xf9	-7
148	0xf8	-8
149	0xde	-34
150	0x04	4
151	0xff	-1
152	0x0f	15
153	0xda	-38
154	0xf5	-11
155	0xfa	-6
156	0x0e	14
157	0xf3	-13
158	0x06	6
159	0xe2	-30
160	0x04	4
161	0xee	-18
162	0x11	17
163	0xfe	-2
164	0xfd	-3
165	0x01	1
166	0x01	1
167	0x09	9
168	0x22	34
169	0x18	24
170	0xe1	-31
171	0xbf	-65
172	0xd9	-39
173	0xd5	-43
174	0xe9	-23
175	0x9e	-98
176	0x0a	10
177	0xe4	-28
178	0x15	21
179	0x0a	10
180	0x07	7
181	0x1a	26
182	0xd0	-48
183	0xf4	-12
184	0xd8	-40
185	0x1c	28
186	0x21	33
187	0xcd	-51
188	0xfc	-4
189	0xf1	-15
190	0xe6	-26
191	0xdb	-37
192	0xd7	-41
193	0x19	25
194	0xe1	-31
195	0xd7	-41
196	0xd2	-46
197	0xd5	-43
198	0xf5	-11
199	0x09	9
200	0x05	5
201	0xdc	-36
202	0xe0	-32
203	0x20	32
204	0xfd	-3
205	0x01	1
206	0x1b	27
207	0x0d	13
208	0x00	0
209	0x0c	12
210	0x11	17
211	0x08	8
212	0x07	7
213	0xf9	-7
214	0xd4	-44
215	0x2a	42
216	0xec	-20
217	0x19	25
218	0xca	-54
219	0xec	-20
220	0xad	-83
221	0xdd	-35
222	0x1c	28
223	0xe7	-25
224	0x36	54
225	0xca	-54
226	0x2f	47
227	0x31	49
228	0x30	48
229	0x26	38
230	0xd8	-40
231	0xf5	-11
232	0xe3	-29
233	0x29	41
234	0x3c	60
235	0xc9	-55
236	0x32	50
237	0xd3	-45
238	0xd3	-45
239	0xf3	-13
240	0xdf	-33
241	0x0c	12
242	0xfa	-6
243	0xe2	-30
244	0xd7	-41
245	0xec	-20
246	0xe0	-32
247	0x08	8
248	0xf8	-8
249	0xfb	-5
250	0xed	-19
251	0xf7	-9
252	0xe1	-31
253	0x07	7
254	0x15	21
255	0xf8	-8

sequential/conv2d_2/Conv2D i1 [16, 3, 3, 8]
0	0xdb	-37
1	0xed	-19
2	0xd1	-47
3	0xef	-17
4	0x0c	12
5	0xe0	-32
6	0x16	22
7	0xf0	-16
8	0x08	8
9	0x2e	46
10	0xfd	-3
11	0x1d	29
12	0x44	68
13	0x0f	15
14	0x5a	90
15	0x20	32
16	0xcc	-52
17	0x0d	13
18	0xc0	-64
19	0xd9	-39
20	0x13	19
21	0xc5	-59
22	0x3c	60
23	0xe3	-29
24	0xe1	-31
25	0xe0	-32
26	0xd7	-41
27	0xfa	-6
28	0x12	18
29	0xec	-20
30	0x0a	10
31	0xf8	-8
32	0x41	65
33	0x58	88
34	0x38	56
35	0x58	88
36	0x79	121
37	0x4f	79
38	0x7f	127
39	0x59	89
40	0xe5	-27
41	0x41	65
42	0xdb	-37
43	0xea	-22
44	0x37	55
45	0xd6	-42
46	0x74	116
47	0xfa	-6
48	0xe2	-30
49	0xde	-34
50	0xda	-38
51	0xf7	-9
52	0x0b	11
53	0xeb	-21
54	0x02	2
55	0xf5	-11
56	0x44	68
57	0x4f	79
58	0x40	64
59	0x56	86
60	0x63	99
61	0x50	80
62	0x66	102
63	0x55	85
64	0xf9	-7
65	0x48	72
66	0xf2	-14
67	0xfa	-6
68	0x38	56
69	0xea	-22
70	0x72	114
71	0x08	8
72	0x6e	110
73	0x46	70
74	0x7f	127
75	0x50	80
76	0x16	22
77	0x6d	109
78	0x05	5
79	0x4a	74
80	0x34	52
81	0x14	20
82	0x46	70
83	0x12	18
84	0xe5	-27
85	0x29	41
86	0xd9	-39
87	0x10	16
88	0x62	98
89	0x22	34
90	0x73	115
91	0x4a	74
92	0x0c	12
93	0x65	101
94	0xe4	-28
95	0x42	66
96	0x61	97
97	0x4e	78
98	0x75	117
99	0x37	55
100	0xfa	-6
101	0x52	82
102	0x07	7
103	0x35	53
104	0xf1	-15
105	0xda	-38
106	0x02	2
107	0xce	-50
108	0x9b	-101
109	0xde	-34
110	0xa1	-95
111	0xcb	-53
112	0x54	84
113	0xf0	-16
114	0x63	99
115	0x46	70
116	0xea	-22
117	0x60	96
118	0xaf	-81
119	0x36	54
120	0x23	35
121	0x29	41
122	0x30	48
123	0x00	0
124	0xe1	-31
125	0x13	19
126	0xf8	-8
127	0x02	2
128	0xb9	-71
129	0xb1	-79
130	0xbf	-65
131	0xa7	-89
132	0x98	-104
133	0xaf	-81
134	0x9c	-100
135	0xa6	-90
136	0x2c	44
137	0xcb	-53
138	0x34	52
139	0x2a	42
140	0xe0	-32
141	0x3f	63
142	0x9e	-98
143	0x1a	26
144	0xdd	-35
145	0xf8	-8
146	0xd6	-42
147	0xe9	-23
148	0x02	2
149	0xdd	-35
150	0x14	20
151	0xec	-20
152	0xde	-34
153	0x08	8
154	0xd3	-45
155	0xf0	-16
156	0x16	22
157	0xe1	-31
158	0x31	49
159	0xf4	-12
160	0xc6	-58
161	0xeb	-21
162	0xbb	-69
163	0xd9	-39
164	0xfe	-2
165	0xc8	-56
166	0x14	20
167	0xdc	-36
168	0xdf	-33
169	0xe4	-28
170	0xd6	-42
171	0xf5	-11
172	0x0e	14
173	0xea	-22
174	0x06	6
175	0xf4	-12
176	0x29	41
177	0x40	64
178	0x1f	31
179	0x40	64
180	0x68	104
181	0x38	56
182	0x69	105
183	0x43	67
184	0xe9	-23
185	0x33	51
186	0xe0	-32
187	0xf1	-15
188	0x34	52
189	0xe2	-30
190	0x60	96
191	0xfd	-3
192	0x04	4
193	0xf3	-13
194	0xff	-1
195	0x16	22
196	0x1d	29
197	0x0f	15
198	0x07	7
199	0x12	18
200	0x6f	111
201	0x6c	108
202	0x6f	111
203	0x79	121
204	0x7b	123
205	0x79	121
206	0x71	113
207	0x78	120
208	0x20	32
209	0x67	103
210	0x1e	30
211	0x1c	28
212	0x4e	78
213	0x12	18
214	0x7f	127
215	0x29	41
216	0xc7	-57
217	0xc6	-58
218	0xc3	-61
219	0xd1	-47
220	0xdc	-36
221	0xca	-54
222	0xda	-38
223	0xd0	-48
224	0x11	17
225	0x0a	10
226	0x0b	11
227	0x20	32
228	0x26	38
229	0x1e	30
230	0x1a	26
231	0x1c	28
232	0xeb	-21
233	0x0c	12
234	0xe8	-24
235	0xec	-20
236	0x01	1
237	0xe7	-25
238	0x1c	28
239	0xf0	-16
240	0xdd	-35
241	0xc6	-58
242	0xd9	-39
243	0xec	-20
244	0xed	-19
245	0xe8	-24
246	0xd7	-41
247	0xe7	-25
248	0x6d	109
249	0x4d	77
250	0x6c	108
251	0x77	119
252	0x69	105
253	0x7f	127
254	0x47	71
255	0x72	114

sequential/conv2d_1/Conv2D i1 [8, 3, 3, 8]
0	0x09	9
1	0x53	83
2	0x50	80
3	0x34	52
4	0x02	2
5	0x14	20
6	0x31	49
7	0xee	-18
8	0x48	72
9	0x3b	59
10	0x3e	62
11	0x46	70
12	0x18	24
13	0x49	73
14	0x6c	108
15	0x17	23
16	0x3b	59
17	0xef	-17
18	0xf5	-11
19	0x1f	31
20	0x08	8
21	0x37	55
22	0x54	84
23	0x17	23
24	0x1a	26
25	0x64	100
26	0x62	98
27	0x45	69
28	0x07	7
29	0x23	35
30	0x43	67
31	0xf2	-14
32	0x5b	91
33	0x4a	74
34	0x4d	77
35	0x57	87
36	0x1e	30
37	0x5a	90
38	0x7f	127
39	0x20	32
40	0x4b	75
41	0xee	-18
42	0xf5	-11
43	0x2a	42
44	0x0a	10
45	0x46	70
46	0x68	104
47	0x1e	30
48	0x11	17
49	0x51	81
50	0x4f	79
51	0x34	52
52	0xfb	-5
53	0x17	23
54	0x32	50
55	0xeb	-21
56	0x49	73
57	0x38	56
58	0x3b	59
59	0x44	68
60	0x0e	14
61	0x47	71
62	0x67	103
63	0x11	17
64	0x3b	59
65	0xdf	-33
66	0xe6	-26
67	0x19	25
68	0xfc	-4
69	0x34	52
70	0x51	81
71	0x10	16
72	0x36	54
73	0x40	64
74	0x41	65
75	0x3b	59
76	0x44	68
77	0x38	56
78	0x53	83
79	0x3c	60
80	0x42	66
81	0xf5	-11
82	0xfa	-6
83	0x21	33
84	0x40	64
85	0x3d	61
86	0x4f	79
87	0x4d	77
88	0x01	1
89	0xda	-38
90	0xdc	-36
91	0xee	-18
92	0x1d	29
93	0xfe	-2
94	0x05	5
95	0x25	37
96	0x5a	90
97	0x62	98
98	0x63	99
99	0x5f	95
100	0x57	87
101	0x5c	92
102	0x7f	127
103	0x4f	79
104	0x65	101
105	0xff	-1
106	0x07	7
107	0x3d	61
108	0x4f	79
109	0x5e	94
110	0x75	117
111	0x63	99
112	0x10	16
113	0xdc	-36
114	0xdf	-33
115	0xf9	-7
116	0x21	33
117	0x0c	12
118	0x17	23
119	0x2d	45
120	0x58	88
121	0x5a	90
122	0x5b	91
123	0x59	89
124	0x4c	76
125	0x57	87
126	0x7a	122
127	0x48	72
128	0x5e	94
129	0xfa	-6
130	0x01	1
131	0x36	54
132	0x43	67
133	0x56	86
134	0x6d	109
135	0x59	89
136	0x0d	13
137	0xd7	-41
138	0xda	-38
139	0xf4	-12
140	0x1d	29
141	0x08	8
142	0x13	19
143	0x2a	42
144	0x0f	15
145	0x51	81
146	0x4e	78
147	0x34	52
148	0xf9	-7
149	0x19	25
150	0x3b	59
151	0xe7	-25
152	0x46	70
153	0x3a	58
154	0x3d	61
155	0x43	67
156	0x0e	14
157	0x46	70
158	0x70	112
159	0x0e	14
160	0x39	57
161	0xf4	-12
162	0xfa	-6
163	0x20	32
164	0x00	0
165	0x35	53
166	0x57	87
167	0x0d	13
168	0x1d	29
169	0x5e	94
170	0x5c	92
171	0x41	65
172	0xfc	-4
173	0x25	37
174	0x4b	75
175	0xea	-22
176	0x54	84
177	0x44	68
178	0x47	71
179	0x4f	79
180	0x11	17
181	0x53	83
182	0x7f	127
183	0x13	19
184	0x44	68
185	0xf1	-15
186	0xf8	-8
187	0x27	39
188	0x00	0
189	0x3e	62
190	0x65	101
191	0x10	16
192	0x12	18
193	0x46	70
194	0x44	68
195	0x2d	45
196	0xef	-17
197	0x16	22
198	0x35	53
199	0xe3	-29
200	0x3e	62
201	0x2d	45
202	0x30	48
203	0x38	56
204	0x01	1
205	0x3b	59
206	0x5e	94
207	0x04	4
208	0x2f	47
209	0xe2	-30
210	0xe9	-23
211	0x14	20
212	0xf3	-13
213	0x29	41
214	0x46	70
215	0x03	3
216	0xea	-22
217	0x4b	75
218	0x47	71
219	0x1c	28
220	0xf3	-13
221	0xf4	-12
222	0x0a	10
223	0xe6	-26
224	0x47	71
225	0x55	85
226	0x57	87
227	0x58	88
228	0x5c	92
229	0x4d	77
230	0x58	88
231	0x3e	62
232	0x59	89
233	0xf2	-14
234	0xf7	-9
235	0x2e	46
236	0x4d	77
237	0x55	85
238	0x5a	90
239	0x6b	107
240	0xfc	-4
241	0x69	105
242	0x65	101
243	0x34	52
244	0xfa	-6
245	0x06	6
246	0x1d	29
247	0xe9	-23
248	0x67	103
249	0x6d	109
250	0x6f	111
251	0x73	115
252	0x70	112
253	0x6a	106
254	0x75	117
255	0x55	85

sequential/conv2d/Conv2D i1 [8, 3, 3, 1]
0	0x60	96
1	0x5f	95
2	0xfd	-3
3	0x7f	127
4	0x7a	122
5	0x06	6
6	0x70	112
7	0x69	105
8	0xf4	-12
9	0xe4	-28
10	0x5b	91
11	0x62	98
12	0xf6	-10
13	0x7c	124
14	0x7f	127
15	0xf4	-12
16	0x6a	106
17	0x6d	109
18	0xea	-22
19	0x5e	94
20	0x5e	94
21	0xff	-1
22	0x7f	127
23	0x7a	122
24	0xfb	-5
25	0x6d	109
26	0x69	105
27	0x30	48
28	0x62	98
29	0x2e	46
30	0x4c	76
31	0x7f	127
32	0x45	69
33	0x3d	61
34	0x70	112
35	0x37	55
36	0x2e	46
37	0x4d	77
38	0xf0	-16
39	0x60	96
40	0x7f	127
41	0x0a	10
42	0x60	96
43	0x7b	123
44	0x09	9
45	0x5a	90
46	0x61	97
47	0x04	4
48	0x7b	123
49	0x7f	127
50	0x13	19
51	0x6d	109
52	0x71	113
53	0x04	4
54	0x56	86
55	0x5f	95
56	0x16	22
57	0x78	120
58	0x7f	127
59	0x26	38
60	0x68	104
61	0x6f	111
62	0x16	22
63	0x52	82
64	0x38	56
65	0xdc	-36
66	0x7f	127
67	0x5b	91
68	0xe8	-24
69	0x78	120
70	0x54	84
71	0xe7	-25
